notebook/model_directory_1/CNN_model.pth (torch, 186783 bytes, 10 tensors)

weight f4 [8, 1, 5, 5]
00000000: 3d0d a4be 085f 653f 591e d03e c9d4 e5be
00000010: 2ba3 a7bf 135d e1bc 4620 5d3f d65b 24bc
00000020: 2893 ea3e ac3a 04c0 4093 813f af65 783e
00000030: 249b 2ebf 1032 c23f 78cb 09bf bbfc 9ebe
00000040: 836c aebf 8138 82bf 05da 8fbf 1b9d 1cbf
00000050: 810e 8bbf 9e38 4bc0 7eac 02c0 b66e 1fbf
00000060: 8648 7ebe 7a54 94bf bfd7 a9c0 17cc 41c0
00000070: daae 4abf 2362 293f c942 f1bd 79f9 03c0
00000080: 3209 6cc0 5f7c 5bc0 822d abbf b298 ad3e
00000090: e245 41be b0f5 65be 65d8 67bf a5f3 df3e
000000a0: 6113 9f3c ab3f 9dbd 01fb 5e3d 1f34 033f
000000b0: 2e62 6b3e 7aec 2b3d 97b1 0d3c c966 a4be
000000c0: 8ead 4bbd e438 c53e 0470 abbf 66c7 89bf
000000d0: 596e 773e c4b9 a5be fd06 7dbf 341c 0dc0
000000e0: 17ac 8cbf fe71 40bd 128d 00c0 4351 65bf
000000f0: 6ad4 b5bf 035e 96be 2017 483f 8c0d 6ebf
00000100: 5c6f 88be 6b0e 02c0 5ad4 ad3f f630 ff3e
00000110: 8b61 b1bf 7b56 e3bf 12cd 74be a961 433f
00000120: 5791 b2bf 642e 3fbe eac0 75bf ccf1 89bd
00000130: 7521 0cbe 9f87 6bbd 3bab b9bd 4f3d 8ebd
00000140: b97a 48be cc29 9fbe 2144 26be e4e8 67be
00000150: 4c0f 5abe 502c 43bd 8745 10be c24b f6bc
00000160: 9b33 0bbe 87f6 48bd 18b8 323d 9f7b c3bd
00000170: f7be acbc 52c8 17be 8d0f f9bd 4a00 80be
00000180: 0176 9fbd 34cc 6fbe 11a8 a1bd 1f56 f8bd
00000190: 800c 73be 303f a23d 2dda a9bd e3b1 06bb
000001a0: 029a c03d 5b22 0cbe a151 033d 8669 dfbd
000001b0: 5d64 1dbe 7324 22be bc84 2bbe f46e 60bd
000001c0: 1739 91be 1dc5 e9bc 5dce 15bd 0fbe 8a3d
000001d0: 50bc ffbc 6588 1dbe 1f58 0e3e d16b 48be
000001e0: 1e84 68be a669 16be a278 0cbe 43fc bb3c
000001f0: d8b4 00be d199 a13e d036 7a3f fb9f 3d3e
00000200: d4d9 82bf 6dac bbbe 70d0 0bc0 03d2 9f3e
00000210: cc60 15bf 2ae9 88bf 6865 dbbe 33ac 91bf
00000220: 7388 3dc0 0ca4 f2bf 24db 29c0 5797 febf
00000230: 18d9 1f3f d3ad 2ac0 6132 3bbf 510b 89bf
00000240: 67f7 463f 1817 783f 88ae 31bf 8d6e aebf
00000250: 836b 3abf be9d 073e 47da e43e e5eb 34be
00000260: 74d6 c6be 03b2 02c0 09b4 ce3e 7bc4 153f
00000270: 562c b83e 029d f9be 5c52 0abf 5ddc ebbe
00000280: 6c73 9a3e 3755 c8bd 069a c03e 7ba7 fc3c
00000290: 3ec4 b73e 9818 97be 5075 9b3e 9bfb d5bd
000002a0: 5631 06be 9228 6c3e e1c6 70be 0348 7b3e
000002b0: 0846 853e f717 80bd 6c16 75bd ce18 6bbf
000002c0: 1fe3 99bd ada9 ae3e 08d1 43bd ce84 803e
000002d0: 205b 2cbf fd19 9ebc 0030 d33e 0619 d8bd
000002e0: cec1 5cbe 4d4a 17c0 fdf0 73bd 4ade 2d3f
000002f0: a67e 053e 076d 8bbe 7abc a1bf 2fd2 083d
00000300: 1b31 0dbe e8b8 ae3e 8c6f 223f 78c0 72be
00000310: e1bf 07bf fa43 24bc d2fc a9be b063 02be
-0.3204135 0.8959813 0.40648153 -0.44888905 -1.309667 -0.027510202 0.8637737 -0.010031661
0.45815396 -2.066081 1.0123062 0.24257539 -0.68205476 1.5171528 -0.53826094 -0.31052193
-1.3626865 -1.0173494 -1.1238409 -0.61177224 -1.0863801 -3.1753306 -2.041778 -0.62278306
-0.24832353 -1.158828 -5.307586 -3.0280817 -0.7917305 0.6616537 -0.117803164 -2.0621016
-3.6880612 -3.429466 -1.3373263 0.3390556 -0.18874314 -0.22457004 -0.90564567 0.43740574
0.01941842 -0.07678159 0.054438595 0.51251405 0.22986671 0.04197357 0.008648298 -0.3210967
-0.04972606 0.38519967 -1.339356 -1.0763977 0.24163188 -0.3236829 -0.9883879 -2.2048464
-1.0990018 -0.04698371 -2.0086102 -0.8957712 -1.4205449 -0.293686 0.78160286 -0.9298942
-0.2664746 -2.03213 1.358043 0.49842042 -1.3857893 -1.7760767 -0.23906353 0.7632089
-1.3950604 -0.1867004 -0.9599749 -0.06735572 -0.13684638 -0.057502385 -0.09065863 -0.069452874
-0.19578065 -0.31086576 -0.16236927 -0.22647434 -0.21294898 -0.04764968 -0.14089023 -0.030065421
-0.13593905 -0.04906323 0.043632597 -0.09545063 -0.021087153 -0.1482251 -0.12161169 -0.2500022
-0.07786179 -0.23417741 -0.07893384 -0.12125801 -0.23735237 0.07922208 -0.08293567 -0.0020552806
0.09404375 -0.1368498 0.03206027 -0.10908799 -0.15370317 -0.15834217 -0.16749853 -0.054793313
-0.2836387 -0.028536374 -0.036573756 0.06774532 -0.031217724 -0.15384062 0.13900803 -0.19572379
-0.22706649 -0.14688739 -0.13717893 0.022947436 -0.12568986 0.31562665 0.9773989 0.18518059
-1.0222726 -0.36654988 -2.184597 0.31214914 -0.58350825 -1.0696156 -0.42850804 -1.1380676
-2.9614532 -1.8956313 -2.6540003 -1.9889935 0.62440634 -2.6668594 -0.7312375 -1.0706578
0.77721256 0.9691024 -0.6940694 -1.3627487 -0.728203 0.13243768 0.44697782 -0.17668112
-0.3883549 -2.042115 0.4037173 0.5850293 0.35971326 -0.487526 -0.5403192 -0.4606656
0.30166185 -0.097818784 0.3761751 0.03084158 0.35891908 -0.2951095 0.3036294 -0.104483806
-0.13104758 0.23062351 -0.23513366 0.24539189 0.26029992 -0.06254571 -0.059835836 -0.91834724
-0.07514023 0.34113827 -0.04780677 0.25101322 -0.67326546 -0.019299502 0.4124756 -0.10551648
-0.21558306 -2.36391 -0.059555996 0.6791731 0.13036594 -0.2723162 -1.2635643 0.03340357
-0.13788263 0.34125447 0.6345146 -0.23706234 -0.5302716 -0.0100259725 -0.332007 -0.1273334

bias f4 [8]
00000000: f171 fbbd cbb8 143f 6f62 16bf 7e3b eebe
00000010: 9697 7cbe 9d83 003f 6478 5cbe 4e41 1c3d
-0.12277592 0.5809447 -0.5874395 -0.46529764 -0.246672 0.50200826 -0.215303 0.038148217

weight f4 [16, 8, 5, 5]
00000000: 2f58 e4be a8ab 74be ee69 d0bf 9ab5 823e
00000010: 80fe de3f 298d 70be fade 2cc0 7d50 233e
00000020: fef2 a03e 20a0 793f 47bc 47be c5f2 acbd
00000030: 9594 31be db62 533f e864 873e 4e48 9ebf
00000040: 53cf febe 13e4 893e 8e54 c43d 0c99 a93e
00000050: 8fa3 edbf 6880 85be b7fa 7abf 65b7 52bf
00000060: 5698 063f 195c a93f eb0d 2640 7e4e b43e
00000070: f371 73bf 8778 c9bf fcca 4a3e 6e13 1cbf
00000080: 48e8 00c0 3516 f0bd ddf1 733d 04bc fa3c
00000090: aea9 a9be 4562 21bf a6e5 c5be 2969 4d3f
000000a0: 014f a5be 62a8 f5bf 6f32 9dbe 7291 813e
000000b0: 450d 2f3f 7334 65bf 79cc efbf 83e2 de3e
000000c0: f9f1 c43e e4b7 e23e 2a3c 1fbf 1090 323f
000000d0: 5859 273f ceb1 e8be 16a7 5e3f ca45 2b3e
000000e0: 79ec c4bd 6b93 543f b5c5 8b3f ab35 89bd
000000f0: 12e3 72bf debe 9f3e 4892 803f e948 8a3f
00000100: 1d93 f8be 480f 833e 824b 4bbf 4f9a 583f
00000110: 1bd9 e43e 1e74 b93e 0bd7 2d3f 4920 3b3f
00000120: be4f 4f3f dc48 203f 32f5 2ebf df8b aabd
00000130: f070 48bd 3c9a 38bd cd17 703c c2ed 83bc
00000140: e802 a1bd 1fb9 283c 72e8 62bd 2c8c 5cbc
00000150: 9954 3bbd 94bc c6bd d0ef efbd 839d 9bbd
00000160: 7c8c 21be f4a3 fdbd 6a36 b3bd 1bb7 60bd
00000170: f78c 97bb 47e5 f4bd 0129 a3bd 1d52 65bd
00000180: 2f2c 11be a4ab 07be 38b5 9cbd 2357 653c
00000190: 62fe 09be 91dc ffbc 24f3 c0bc c5e3 05bb
000001a0: dae5 42bd aef2 c3bd 002f fcb9 b17d 8c3d
000001b0: d077 123c b443 8c3c 9832 b4bd 13cd 3dbd
000001c0: f35d 473d de95 d93d db7a 603c 6078 24bd
000001d0: 513b 09bd 4ddc d7bc 3366 5e3c 39b6 92bd
000001e0: a06c afbd aa91 12bd d940 6dbd 108e 233d
000001f0: f9a5 b5bd 6545 1640 7cdb 1b3f 18c1 04c0
00000200: a16d c13f 8280 833e 3696 243f e30e 4dbf
00000210: 9478 f7bf 8177 5e3e d859 d63e 3b87 d9be
00000220: 8366 0bc0 7523 81bf 6bc9 2dbf 346f d93e
00000230: e7c5 0cbf 267e a53e 6a14 2a3e aaae f3bc
00000240: 064e abbe 82d7 41bf ac5e 563f de57 b93f
00000250: c933 923e 70fb bebe 9377 0540 c9a2 ff3e
00000260: 35ad 99bf 2b48 6bbf 842c 8bbf 05a1 7abf
00000270: dfcd c9be f9b8 e9be af55 7cbe 52c4 173f
00000280: 7a80 223f 9689 4abf 37d4 d0be 764e 6a3e
00000290: c2d4 d33e 1705 c13e baee 36be b34c acbc
000002a0: f8f4 023e 3efc 64be 3922 59bf 23de 66bf
000002b0: 4dff d4bd 5eb8 4cbe 1810 2ebd 436d 3bbf
000002c0: 99ca 88bd 78fc b93f 8c60 013f 6ff4 15bf
000002d0: eb94 8c3d e09b c43e 59d8 09bf cee5 3abe
000002e0: 11aa ae3d 5e27 84be e9da 2d3d 5295 9dbd
000002f0: a785 323c bd4c 86bd c10d a4be d2d6 3fbe
00000300: 5fb0 1d3d 2ece 693e d39e f4be 2ff9 62bd
00000310: 2053 fc3e 24d2 a0bf f9c1 f6be 9f6a 6dbe
00000320: ae7b 80be 59bd 833f 0c78 a83d 82b8 5e3f
00000330: 677f 2bc0 4cdd 81bf eeb1 babf 4f52 f8be
00000340: 50ac 833e ab1e 1dbf 2406 af3d 9a91 dfbe
00000350: 8788 eebf fc60 7a3f a57c 2c3f 2b69 313d
00000360: e55a ef3e e89d a6bf 407a 9d3e e4c3 28bd
00000370: f55a 1e3e 8b0a 9fbf ad05 493e 36c9 8a3f
00000380: 1116 bd3f 98a5 19bf de2d 5bbc ed10 7ebf
00000390: 08ab 83bf d1f3 ebbf 9db0 9fbf 6c51 cebf
000003a0: 3a62 a5bf 7354 66bf 6cbc 62c0 69ed 96bf
000003b0: d9f8 76bf 9d4c 3d3f 684c 073f f0a2 97bf
000003c0: 2d24 95bf ba22 28c0 4914 cabf 8bb6 9a3d
000003d0: 9bf6 03bf 6c0c a9bd 1594 1ebf 4f52 9abe
000003e0: 29a6 df3f 5d6d b53f 2f64 a73f 3fba 27c0
000003f0: ea53 f13d 3f7f 6a3b 027c 823e 8ead f03e
-0.4459853 -0.23893607 -1.6282327 0.25529176 1.7421417 -0.23491348 -2.7011094 0.15948673
0.31435388 0.97509956 -0.19505416 -0.08444742 -0.17341836 0.82572716 0.26444173 -1.2365816
-0.4976755 0.2693182 0.0958644 0.33124578 -1.8565539 -0.2607453 -0.9803881 -0.8231109
0.52576196 1.3231231 2.5945995 0.35216135 -0.9509575 -1.5739907 0.19803995 -0.6096715
-2.0141773 -0.11722986 0.05955683 0.030607231 -0.33137268 -0.6304057 -0.3865177 0.80238587
-0.32286838 -1.9192011 -0.3070254 0.25306278 0.6837962 -0.89533156 -1.8734275 0.4353219
0.3846586 0.44280922 -0.6220118 0.6975107 0.653707 -0.45448154 0.869737 0.16725841
-0.09615416 0.8303744 1.091971 -0.066996895 -0.9487773 0.31200308 1.0044641 1.08035
-0.4854974 0.25597596 -0.7941209 0.84610456 0.44696888 0.36221403 0.67906255 0.7309614
0.8098105 0.62611175 -0.6834289 -0.083274595 -0.04893583 -0.045068964 0.014654112 -0.016104583
-0.078618824 0.010298043 -0.05539746 -0.013461154 -0.045734975 -0.09703937 -0.117156625 -0.07598402
-0.15776247 -0.12384787 -0.08750613 -0.054862123 -0.0046249586 -0.11957794 -0.07966805 -0.055986512
-0.14177011 -0.1324907 -0.07651752 0.013997826 -0.13475946 -0.031233104 -0.023553438 -0.002042995
-0.047582485 -0.09567772 -0.00048100203 0.06859911 0.008939698 0.017122127 -0.087987125 -0.046338152
0.04867358 0.10624288 0.013701166 -0.04015386 -0.033503834 -0.026350165 0.013574171 -0.071636625
-0.085656404 -0.035783447 -0.05792317 0.039930403 -0.088695474 2.3479855 0.6088178 -2.0742855
1.5111581 0.2568398 0.64291704 -0.8010084 -1.9333673 0.21725275 0.4186542 -0.42485985
-2.1781318 -1.0088946 -0.67885464 0.42467654 -0.54989475 0.32322806 0.1660935 -0.029746372
-0.33457965 -0.75719464 0.8373821 1.447994 0.28555134 -0.37301207 2.0854232 0.49928883
-1.2005984 -0.91906995 -1.087296 -0.97901946 -0.3941488 -0.45648935 -0.2464206 0.59283936
0.6347729 -0.7911619 -0.40786907 0.22881493 0.4137326 0.37699196 -0.17864504 -0.021032667
0.1278876 -0.22361848 -0.84817845 -0.90182704 -0.10400257 -0.19992206 -0.042495817 -0.73213595
-0.066792674 1.4530172 0.50537944 -0.585761 0.06864341 0.38400173 -0.53845745 -0.18251726
0.08528531 -0.25811285 0.042445097 -0.07694496 0.010896123 -0.065576054 -0.32041743 -0.18734291
0.03849828 0.22832558 -0.47777423 -0.05541342 0.4928217 -1.256413 -0.48194864 -0.23185204
-0.2509436 1.0292159 0.08226022 0.87000287 -2.679651 -1.014566 -1.458555 -0.48500296
0.25717402 -0.6137492 0.08546093 -0.43665773 -1.8635415 0.97804236 0.6737769 0.043313187
0.46749035 -1.3016939 0.30757332 -0.04120244 0.15464385 -1.2425092 0.19631071 1.0842655
1.4772359 -0.600183 -0.013377635 -0.99244577 -1.028657 -1.8433782 -1.2475773 -1.6118598
-1.2920601 -0.8997261 -3.5427504 -1.1791202 -0.9647346 0.7394503 0.5285096 -1.18466
-1.1651665 -2.6271195 -1.578744 0.075543486 -0.51548165 -0.082543224 -0.61944705 -0.3014092
1.7472583 1.4174 1.3077449 -2.6207426 0.117835835 0.003578141 0.25485235 0.47007412

bias f4 [16]
00000000: 372f dabe 300d 253f 862c 99bf 2815 0dbf
00000010: e523 893d 9c3d 2bbf 916a 46be 7b08 aabd
00000020: 4dbb b3bd ecdd f9bf 33af e43e e213 853e
00000030: a894 92bf e3b8 84be f894 a0bf f956 87bf
-0.42614147 0.6447325 -1.1966712 -0.55110407 0.066962995 -0.66890883 -0.1937659 -0.08302399
-0.08775959 -1.952085 0.44664916 0.25991732 -1.1451616 -0.25922307 -1.2545462 -1.0573417

weight f4 [128, 256]
00000000: 9c3e bebc 26dc 143d 5b08 18be 5c97 a8bc
00000010: 641f e6bc fcbf 87bd b0a7 0cbe 1543 a8bd
00000020: 0512 3bbe 65b1 23be 6a70 3bbd 587a 51bc
00000030: 2e9f 94bd 68a3 20bc c0e5 beba 249d 42bd
00000040: 6e51 033d 2006 d33b 507a 15bd 0650 08bd
00000050: 08fa 6e3c 9cd8 373d 9083 9e3c b809 d2bc
00000060: a0d3 803b b011 e5bd f2b1 02be 3794 39be
00000070: 6e86 02be 4e66 debd fc36 25be 1646 1dbe
00000080: 19df e1bd fca2 113d a06e 7c3c 00c6 8dbc
00000090: 3603 5fbd c800 27bd f0b8 b8bc a44d cabc
000000a0: 66c8 48bd f28d 05bd dce7 2cbe 4026 6ebb
000000b0: 1b68 13be 1003 1fbe 92ef 2dbe 8116 0bbe
000000c0: e97f a2bd 28ed 0c3c 0a39 2abd fada 353d
000000d0: e8c6 6ebc 7e13 bebd c74e f9bd 252a f8bd
000000e0: 0235 c1bd 5525 2cbe 7b1b 27be f2cd f1bd
000000f0: b032 02be 4403 b2bd 92ec 40be de59 1cbe
00000100: 9b5d 04be 7af5 01be 48df a4bd e399 9cbd
00000110: 4577 a3bd e694 16be 8cb3 c6bc 95fd 21be
00000120: b2a3 abbd 5c78 8ebc 5034 bbbc 8072 ce3b
00000130: 109b 093d ecba 453d 687e 203d 00d4 eb3a
00000140: 72fe 4abd 126f 173d e4e5 ae3c a009 a53c
00000150: eaa5 2a3d d6e9 193d 8ecc 0dbd 5c25 eb3c
00000160: b0b4 9bbc 64a3 7cbd eaf7 783d c0a4 823a
00000170: 681e ccbc e49c af3c 1883 9cbc 4ab3 263d
00000180: 908b c8bb 00e1 783a a42c 49bd a491 393d
00000190: da39 0dbd 00f9 3c3c 6a7c 723d fca6 03bd
000001a0: 02d7 173d aaf7 1dbd ea0c 4f3d 9629 2dbd
000001b0: 7e95 7dbd 9cc0 39bd 40a4 c1bb 88ac fbbc
000001c0: 4873 2fbc c6ae 703d 984e 50bd c447 303d
000001d0: 7c4c 62bd cc3f 4fbd 4000 bb3a e0e9 f33c
000001e0: 4cda 3fbd c4e0 0f3d 3e57 29bd ce96 52bd
000001f0: fe4d 163d 40b8 5cbd 18cb 423c 9885 f33c
00000200: 3cca f23c e80c ad3c e494 c3bc 78e3 f9bc
00000210: a0db 6dbd d09f b53c 7e05 67bd 3c64 1ebd
00000220: d87d fbbc e05c 443c 4adb 673d 22e4 2fbd
00000230: e009 fe3b b013 1f3c d475 adbc a2de 5cbd
00000240: 5c33 f0bc 4602 19bd 20cf 6a3b 8c7c f7bc
00000250: a0f9 52bd 08d2 ed3c a009 f53b 7c58 19bd
00000260: 60ef 243d 96bb 5cbd 5669 7f3d 504f 263d
00000270: c887 5a3d 882f 24bd 666c 29bd 720d 4c3d
00000280: 404c ec3b f097 95bc 97b2 8ebd eb93 e3bd
00000290: 58eb bc3c b4c5 1c3d afc1 18be 2ee7 19bd
000002a0: d860 fc3c 8e0e 11bd bdae 22be 3e9c 19bd
000002b0: b428 12bd ae4f 22bd 3832 193c 80f2 eb3a
000002c0: 7e49 52bd 88eb 7a3c c80b 423c b870 623d
000002d0: e073 0dbb 76bd 6abd d4a6 8ebc 5043 b9bc
000002e0: 2cb5 47bd 8af7 86bd c10e e5bd 0517 a4bd
000002f0: 6e09 24be 1c68 0bbe 2219 bfbd 047d f9bc
00000300: 7af2 11be 0cbc 7abd 7a8b 1bbe d868 efbd
00000310: b079 3d3d 08af c83c 6058 04be e4b7 5c3d
00000320: c6e1 78bd 9f50 c4bd 4aae cfbd ee8f 2fbd
00000330: 8cfd 22be 1607 eebd b6fb 95bd 8066 74bc
00000340: 80aa d1bc e0b2 713d 7040 e8bb 569d 16bd
00000350: 1224 713d 9a4d 1cbd 40fc 593b 3679 43bd
00000360: 464b 61bd 5647 7d3d 3e30 0dbd a014 78bc
00000370: 0c98 513d 6081 5bbd 9a3f 223d c87c 19bd
00000380: 950a 2ebe 19f0 d2bd 952b 9fbd 9a9d 36be
00000390: 82ce 2fbe 4f4a ecbd 4871 93bd 8927 9bbd
000003a0: 5aa9 38be 0c1f 04be 0426 1abd 2092 e9bc
000003b0: 73f3 30be 35c5 0dbe e97a 26be 4222 04be
000003c0: 0089 1d3a 9042 0c3c 82b1 243d 6a2c 6c3d
000003d0: 9ccf 70bd 9c90 3cbd 54ca 00bd 06fe 1abd
000003e0: 487b a93c f225 393d 00cd f73c 20c6 02bb
000003f0: 5299 51bd 16ee 4fbd 38b6 13bc 0022 48ba
-0.023223214 0.036342762 -0.14846937 -0.020579986 -0.02809114 -0.06628415 -0.13735843 -0.0821592
-0.18268593 -0.1598564 -0.045761503 -0.012785517 -0.072569236 -0.009804584 -0.001456432 -0.047513142
0.03206008 0.006439939 -0.0364936 -0.03327944 0.014585979 0.04488431 0.019349843 -0.0256394
0.0039314777 -0.11185014 -0.12763193 -0.18122946 -0.12746593 -0.10859357 -0.16134256 -0.15358767
-0.110288806 0.035555825 0.015407234 -0.017306328 -0.05444642 -0.04077223 -0.022549123 -0.024695225
-0.04901924 -0.032606073 -0.16885322 -0.0036338717 -0.14395182 -0.15528512 -0.1698592 -0.13582803
-0.07934553 0.008601464 -0.041558303 0.044398285 -0.01457379 -0.092810616 -0.12173229 -0.121174134
-0.094339386 -0.16811116 -0.16319077 -0.11806859 -0.12714648 -0.08692029 -0.18840244 -0.15268657
-0.12926333 -0.12691298 -0.080504 -0.07646539 -0.07981733 -0.14705238 -0.024255536 -0.1581939
-0.08380832 -0.017391376 -0.022852093 0.0063002706 0.033595145 0.048273966 0.03918305 0.0017992258
-0.049559064 0.03697116 0.021349855 0.020146191 0.041662134 0.03757652 -0.034618907 0.028704338
-0.019007057 -0.06167926 0.060783304 0.0009967312 -0.024916843 0.021437116 -0.01910548 0.040698327
-0.006120153 0.0009493977 -0.04911484 0.04530491 -0.034479 0.011533976 0.05920068 -0.03214167
0.03707028 -0.03856627 0.050549425 -0.042275988 -0.061910145 -0.045349702 -0.0059094727 -0.030721918
-0.010708638 0.058760427 -0.050856203 0.04303719 -0.055248722 -0.05059795 0.0014267042 0.029774606
-0.046839043 0.035126463 -0.041342966 -0.05141335 0.036695473 -0.053886652 0.011889242 0.029726788
0.029637448 0.021124318 -0.023874708 -0.030503973 -0.05807078 0.022170931 -0.056401722 -0.03866981
-0.030699655 0.011985034 0.056605615 -0.042942174 0.007752642 0.009709284 -0.021174349 -0.053923257
-0.029321365 -0.037355684 0.0035829023 -0.030210756 -0.051507592 0.029030815 0.007477954 -0.0374379
0.04026735 -0.053889833 0.062356316 0.040602982 0.053352147 -0.04008439 -0.041363142 0.04981751
0.007211238 -0.018260926 -0.06967657 -0.111121975 0.02306144 0.038274482 -0.14917634 -0.037573986
0.030807897 -0.03541427 -0.1588697 -0.03750252 -0.03568335 -0.03962677 0.009350352 0.0018001348
-0.05133962 0.015314944 0.011843629 0.05528328 -0.002158396 -0.05730959 -0.017413534 -0.022615105
-0.048756763 -0.06590183 -0.11184455 -0.08012203 -0.16019222 -0.13613933 -0.093309656 -0.03045512
-0.14252654 -0.06121449 -0.15189925 -0.11689919 0.04625863 0.024497524 -0.12924337 0.05388631
-0.06076219 -0.0958569 -0.10140665 -0.04286187 -0.15917033 -0.11622445 -0.07323401 -0.014917016
-0.025593996 0.05900848 -0.0070877597 -0.03677114 0.05887229 -0.038159944 0.0033261925 -0.047723018
-0.055003427 0.06183561 -0.034469835 -0.015141636 0.051170394 -0.05359018 0.039611436 -0.037472516
-0.16996224 -0.10299701 -0.077719845 -0.17833558 -0.1716862 -0.11537611 -0.07199341 -0.075759
-0.18033352 -0.12902468 -0.03763391 -0.02851206 -0.17280369 -0.1384476 -0.16257824 -0.12903693
0.00060094893 0.008560792 0.040208347 0.057659544 -0.05879174 -0.046036348 -0.031442955 -0.037839912
0.020688668 0.045202203 0.030249119 -0.0019954517 -0.05117161 -0.050764166 -0.009015612 -0.0007634461

bias f4 [128]
00000000: 6f35 2ebe 6486 e8bc cca0 62bf 9e37 09bd
00000010: b5ae 16bc 21db cebf f732 d4bf a6d6 98be
00000020: ac81 c3bf 1dba a2bf b4bc 1fbf 13c2 3cbf
00000030: 82da 14bf 7974 2dbf 4edd cbbe b5e3 84bf
00000040: 30cc d4bd d291 243f 74e2 2abf 7f33 bfbd
00000050: 47e6 5f3e edaa 803c 4e19 b8bd 0fb4 a3bf
00000060: 66c4 92be 8141 32bf 5019 2ebe 2e4b 17bd
00000070: 7ffe a8be 0699 943f a064 f5bd 27cf 1e3f
00000080: b0d0 dbbd 4b97 82bf f413 373f 426c 31be
00000090: 328b debe 3ead adbe c00f 3540 3953 0dbf
000000a0: 0ded ad3f 098a 8fbe 57ce 003c 6450 02bd
000000b0: d5fd 99bf 24c8 07be dd22 cdbe eef2 60bd
000000c0: 0b95 9ebe 3a8e d1bf 66d8 1a3e 0018 b9be
000000d0: f704 65bf 8e72 60bf 9ddc 83bf 08f8 45bd
000000e0: b9e6 7dbf 9ec2 d63e 1249 b7bd 3d6e 8dbe
000000f0: b3cb 22bf 2dee 89be 4baa 863f 679f 55bf
00000100: 0da5 14be cfd7 dc3e a04a 10bf 8829 09be
00000110: 3264 003e ffb1 91be cff3 94bf 6fde 80be
00000120: 4c61 abbc 13e9 48bd 03d5 90bf 5c6e b9bf
00000130: 5433 59bf 3f67 32be f6d1 eabf 19d4 10be
00000140: 0e82 2ebf 4f67 cabf fa3b babd 7097 cabd
00000150: b6c1 10bf e6f0 5abf 3310 a5bf 8dc6 92bd
00000160: 24cd c9bf 57ae 47be 8eff bfbb 2d90 31bf
00000170: 99a4 c3be b74d 8fbd 64d1 02bf 7a65 fdbe
00000180: 8255 f93d c50f 26bf b90e dfbf b27d eabe
00000190: 9475 8cbe 7265 35bf 8a7f d2be ba47 f6be
000001a0: 550c 00be ce89 fcbe 1550 70bd d9a8 10bf
000001b0: 5109 63bf 28d5 2abe 85e8 08be 9f5c 233e
000001c0: 6a0e 03bf 933f 933f 4c32 573f 072f 39bd
000001d0: 5229 5ebf f664 82be b893 29bd d84f d9be
000001e0: 143c 26be 826c 8dbf c06b 8bbe 5ab0 43bc
000001f0: 509f d9be 18d0 cbbe a353 84bd d6e7 87bf
-0.17012571 -0.028384395 -0.88526607 -0.033500306 -0.009196927 -1.6160623 -1.6578053 -0.29851264
-1.5273948 -1.2713047 -0.62397313 -0.73733634 -0.58145916 -0.6775585 -0.3981728 -1.0381991
-0.10390508 0.64285004 -0.6675179 -0.09335994 0.21865188 0.015706504 -0.089892015 -1.2789325
-0.28665465 -0.696312 -0.17001843 -0.03693693 -0.33006665 1.1609199 -0.11982083 0.6203484
-0.10733163 -1.0202421 0.7151482 -0.17326453 -0.43465573 -0.33921236 2.8290863 -0.5520511
1.3587967 -0.28035 0.007861695 -0.031814948 -1.2030588 -0.13259941 -0.4006566 -0.054919176
-0.30973086 -1.6371529 0.15121612 -0.36151123 -0.894607 -0.87674797 -1.0301701 -0.048332244
-0.9918018 0.41945356 -0.08949484 -0.27623168 -0.6359207 -0.26939526 1.0520719 -0.83446354
-0.14516087 0.431334 -0.5636387 -0.13394749 0.12538221 -0.28456113 -1.1636904 -0.25169703
-0.020920418 -0.049050402 -1.1315006 -1.4486804 -0.84843946 -0.17422198 -1.8345325 -0.14143409
-0.681672 -1.5812777 -0.09093471 -0.09892166 -0.5654558 -0.8552383 -1.2895569 -0.07166777
-1.5765729 -0.19500099 -0.005859322 -0.6936062 -0.38211516 -0.06997245 -0.51100755 -0.49491483
0.121745124 -0.6486781 -1.7426368 -0.45799023 -0.27433455 -0.7085792 -0.4111293 -0.48101598
-0.12504704 -0.49323887 -0.058670122 -0.5650764 -0.8868609 -0.16682875 -0.13369949 0.15953301
-0.5119387 1.1503776 0.8406112 -0.045210864 -0.867818 -0.25467652 -0.04140064 -0.42443728
-0.16233855 -1.1048739 -0.27230644 -0.011943901 -0.42504358 -0.398072 -0.06461265 -1.0617626

weight f4 [64, 128]
00000000: 8544 82bd f7f7 863d 8804 e93c 44b4 513d
00000010: 768d 03be 8efb e2be 96f7 3fbe 11e1 b7bd
00000020: c21d 7b3d 61f5 c4bc 2ec3 ccbd b0e2 e0bc
00000030: 3fe3 aabe 29ab 15be e422 6c3c f9a8 d9be
00000040: 04f5 f8bc 0315 033a c73b 953d b4e0 7f39
00000050: c0b9 f9bd 8fd5 4cbe bd5c 18bd 8856 d5bd
00000060: c420 81be 821a 51be b9a3 213d 1424 193d
00000070: 7566 01be c0ea d5be 23b0 f0bd a2df 5dbe
00000080: 5c44 953c 605e ffbd f8ba aebd 367f 093c
00000090: 752e 5bbd ef68 553b 8a26 02bf 2f4e 1bbe
000000a0: e774 28bd 800e 91bd c678 09be 867c a3bb
000000b0: 21b7 6bbe 2623 9fbe d8e2 5fbd b05e e23d
000000c0: a467 cfbd 1398 0b3e dfa3 03bd 83b3 8dbe
000000d0: d14c b3bc 582f 73bd 1d07 2cbe 6ae3 bb3d
000000e0: c34b 3cbe 685a 71bc 8db3 ddbc 3f43 fd3c
000000f0: 3e26 c4be f53e 13be 157c 05be f28f 6abd
00000100: d62b 5c3e bf68 88be 7e82 c0bc 13d7 b43d
00000110: d5c3 bdbe 2897 d6bd 3bd8 8dbd 6787 44be
00000120: 887b bfbd 2c31 043c e810 133d 483f 1ebe
00000130: c940 4cbe e93a 73bd 3955 d7bd 84dc a5bd
00000140: 25cd 013e d1fb c2bb eb32 353d 6219 253d
00000150: 410c c9bc e8ea 1bbb 4058 71be 30c2 8fbc
00000160: 6d17 6b3d 5f26 a3bd 748f febd b183 083d
00000170: ff55 c63d f0be 0a3d 7224 ab3b 6033 fabd
00000180: 21bd 40be 847f 06be 94fa 51be 756a 98bd
00000190: eb5f c53b 271c 98be 4cf2 c1bd 961b a6bd
000001a0: 5c64 0c3c 88ea fc3c 5f56 94be d7b5 6c3d
000001b0: b8d1 1cbe 6092 323d 33b1 6f3d 690c fcbe
000001c0: 0cdb d6bb 2976 92be c2e5 8cbe 4624 163e
000001d0: b526 05bc 676d adbe 1652 49bb 76ee afbe
000001e0: 7f5b d43d 20e2 533d 5f87 ccbe 6ba6 5e3c
000001f0: ade8 803d e3f6 013b 32b2 e4bd cc69 ebbd
00000200: ae0a 1b3d 2fff 643e 2ded 033e 13e4 8d3c
00000210: b39f d13d ec6e 5dbe 85fa ae3c 9bfc d43e
00000220: 625d cdbe 7990 093f 9e85 c5be 01f9 d8bb
00000230: 10ec 1ebf b12c 953d 06d0 993c 59ec b63e
00000240: 1bf3 c6bc cdd9 a6bf 0b5f edbe 1855 b8bc
00000250: dec8 b9bf 6b60 d3be c499 c03e a611 09bc
00000260: 3df8 eb3e 298f c9be 1d45 413e ccaa fdbd
00000270: b569 b6bc fadb 04bf 87e2 a33c fd93 2bbd
00000280: c859 b73d 0399 1abd dd4b 52be 862e a6bd
00000290: ea79 c6be 2a40 2abe d414 a03e ddd9 66be
000002a0: 0cca 94be 010f efbb 2fc7 0d3f c7f8 cdbc
000002b0: 663f dfbe 7d5e bdbf a0e9 9cbb d360 ca3d
000002c0: 66b9 143e be89 713f 081e 8a3e a832 66be
000002d0: 71e6 23be 36b9 633f 467a 1c3f 3403 e2be
000002e0: 45ea 36bf dbb2 b33e 8428 42be 9ad3 26bd
000002f0: b69f 8cbe 3467 aa3c 13d6 0abf aef1 f93d
00000300: f534 533e 6ded ffbe 4711 993b 0b95 42bd
00000310: fe5d 78be db08 61be 26b8 643e 1a1b 02bf
00000320: 13a3 73bf 6163 c03d 8348 953e 7fb6 92bf
00000330: 003d 063f 4009 a53e bc4e d6bc 0d6d edbb
00000340: ef12 f03d 61ce f1be de03 b83d 5fc3 b13d
00000350: db6a af3e fd2d 923e fe30 6fbf 9ea0 123e
00000360: ebd8 e63e 7325 763d b7da 7bbc 6e20 613e
00000370: be16 5fbe b17c cdbc 7de1 813e 2845 2fbf
00000380: d865 64bf 54f9 be3e 9f63 fdbe ef74 06bf
00000390: 38e6 2b3e b6cd 75be bc24 333f 40d5 94bd
000003a0: a8e7 c73d b89f 9ebf a6ca ffbf acab e6bc
000003b0: 6563 38be a70b 973d d44b 2fbe 6525 e0be
000003c0: 88c8 003e 5b13 ffbe 07f6 903d b4d2 b9bc
000003d0: 975b 483e e851 7ebd d766 ca3c c4f1 c63e
000003e0: cf34 293e 015e ca3e 499c c43e 2829 f1bd
000003f0: f918 763d 5c7b 8fba eaa7 3e3d 99a6 1c3e
-0.06360725 0.06590264 0.028444543 0.051197305 -0.12846932 -0.44332546 -0.1874679 -0.08978475
0.061307676 -0.024042787 -0.09998165 -0.027451843 -0.333765 -0.14616074 0.014412615 -0.42511728
-0.03039027 0.00050003844 0.07286792 0.00024402404 -0.12193632 -0.20003341 -0.037197817 -0.10416895
-0.2522031 -0.20420268 0.03946278 0.037387922 -0.1263674 -0.41780663 -0.117523454 -0.2166734
0.018221073 -0.124691725 -0.08531755 0.008392146 -0.0535111 0.0032563766 -0.50840056 -0.15166543
-0.04112711 -0.07082844 -0.13424978 -0.0049892096 -0.23019077 -0.31081504 -0.054659694 0.110532165
-0.1012719 0.1363223 -0.0321387 -0.2767602 -0.021887215 -0.059371322 -0.16799589 0.09174235
-0.18388276 -0.014731027 -0.027063156 0.030915854 -0.38310426 -0.14379485 -0.13035615 -0.057266183
0.21501097 -0.26642415 -0.023499724 0.08830085 -0.3706347 -0.104780495 -0.06926008 -0.19192277
-0.093497336 0.008068364 0.035904795 -0.15453827 -0.19946589 -0.059382353 -0.10514302 -0.08098701
0.12675913 -0.005950429 0.044238012 0.04030741 -0.024541976 -0.0023791138 -0.23568821 -0.01754865
0.057395387 -0.07966303 -0.12429705 0.033328716 0.09684371 0.0338735 0.0052228505 -0.1221683
-0.18822147 -0.13134581 -0.20505744 -0.0744218 0.006023397 -0.2970898 -0.094700426 -0.0811073
0.008568849 0.030873552 -0.28972146 0.057790603 -0.15314376 0.043596625 0.0585186 -0.49228218
-0.006556874 -0.28605774 -0.2751904 0.14662275 -0.008126904 -0.3387253 -0.0030719093 -0.3436162
0.10369014 0.05172932 -0.3994703 0.013589482 0.062943794 0.0019830994 -0.111668006 -0.114947885
0.03785198 0.2236297 0.12883444 0.017320668 0.10235538 -0.21624345 0.021359691 0.41598973
-0.40110308 0.5373607 -0.38578504 -0.0066214805 -0.6207895 0.07283915 0.018775951 0.35727194
-0.024285844 -1.3035218 -0.46361575 -0.022501513 -1.4514425 -0.412845 0.37617314 -0.008366024
0.46087828 -0.39367035 0.18874021 -0.123860925 -0.022267202 -0.5189816 0.020005478 -0.04188918
0.08952671 -0.03774358 -0.20536752 -0.081143424 -0.38764888 -0.16626039 0.3126589 -0.22544046
-0.290604 -0.00729549 0.55382055 -0.02514304 -0.43603057 -1.479446 -0.0047885925 0.09881749
0.14523849 0.943508 0.26976037 -0.22480261 -0.16005875 0.88954484 0.61124074 -0.4414307
-0.71451217 0.35097393 -0.18960768 -0.040729143 -0.274656 0.020801164 -0.542329 0.122043
0.2062567 -0.4998583 0.004671249 -0.04750542 -0.24254605 -0.21976034 0.22335872 -0.50822604
-0.95170707 0.09393955 0.29156885 -1.1461943 0.5243683 0.3223362 -0.02616059 -0.007245666
0.11722361 -0.47227767 0.089851126 0.08679842 0.34261212 0.2855071 -0.9343413 0.14319083
0.4508737 0.060094308 -0.01537197 0.21985027 -0.21786019 -0.025083872 0.25367346 -0.684649
-0.892179 0.37299597 -0.49490067 -0.52522177 0.1678704 -0.24004254 0.6997793 -0.07267237
0.09760982 -1.2392492 -1.9983718 -0.028158031 -0.18006666 0.073752694 -0.1711877 -0.4377853
0.12576497 -0.49819455 0.07078176 -0.022683479 0.19566189 -0.06208983 0.024707241 0.38856328
0.16524051 0.39524844 0.38400486 -0.11775428 0.06008241 -0.0010946798 0.046546854 0.15297927

bias f4 [64]
00000000: eafd e8be f82b 0640 e11e 88bf a8cc debf
00000010: 8d1c 23c0 9193 f1bf 1422 32bf cedc e8bf
00000020: 7594 10c0 98e6 36bf 8d16 d6bf 19f2 0cbf
00000030: 0c64 80bf 150e 8a3f 748a 553f 8688 9cbf
00000040: 1bb9 fa3e c3b2 23c0 15d1 c6bf 330d c7bf
00000050: c666 15c0 5743 743e 7764 fabe a27d 1e3e
00000060: 6dba 22c0 d8c3 74bf f76b 08c0 1d26 1ac0
00000070: 94dd a9bf 1cf4 5e3f 63bd 0fc0 66ee 25c0
00000080: 9265 dfbf 1536 62c0 b0b8 38c0 605f 56c0
00000090: 6dc5 88bf 303e 56c0 8936 17c0 cb23 eabf
000000a0: 8702 aebf 7324 d3bf 2fba 00c0 e819 5cbf
000000b0: 7c5f 893f 97ba 08c0 a555 9cbf 986d 96bf
000000c0: 4e22 d0bf cf9f 64bf 25f4 1ec0 c928 1bbf
000000d0: 59c9 b33f e36b 3dc0 16e3 563e 2ee6 f73e
000000e0: 59be afbf 007d 4abf a943 61c0 08e3 1fbf
000000f0: 878a 5abe 27be ae3e 3f1d adbf 7896 0fc0
-0.4550622 2.0964336 -1.0634423 -1.7406206 -2.5486176 -1.8873159 -0.6958325 -1.8192384
-2.259061 -0.7144561 -1.6725632 -0.5505691 -1.0030532 1.0785547 0.8341439 -1.2229164
0.4896935 -2.5577857 -1.5532557 -1.5550903 -2.3343978 0.23853813 -0.48904774 0.15477613
-2.5426285 -0.95611334 -2.1315897 -2.4085763 -1.3270745 0.8709123 -2.2459342 -2.5926757
-1.7452872 -3.534551 -2.8862724 -3.3495712 -1.068525 -3.3475456 -2.3627036 -1.8292173
-1.3594521 -1.6495498 -2.0113637 -0.8597703 1.0732265 -2.1363885 -1.2213637 -1.1752195
-1.6260469 -0.8930635 -2.4836514 -0.6060911 1.4045821 -2.95971 0.20985064 0.484178
-1.3729964 -0.79096985 -3.5197546 -0.624558 -0.21341906 0.3412945 -1.352455 -2.243559

weight f4 [10, 64]
00000000: 856c 3a3e 49c8 643e f363 a2be 1814 1fbf
00000010: 526e 25be c201 793e 0012 be3d 4847 1cbf
00000020: 3c42 edbd 1442 febc 48fa 92be 6d7c b0bd
00000030: a527 54bd 1777 0d3e 12d5 b3bd a46e 8bbd
00000040: 8f66 62bf be58 183e 0183 a3bd 6e0d a5bc
00000050: d908 17bf e687 56be bfa6 dcbe 40ac 33bc
00000060: 5aef 38bf f8ad c8bf f787 9c3c 9233 96bf
00000070: 5885 49be f777 7cbf 9cef 443d c1d9 97be
00000080: 406f b5be bf74 3cbf 9e56 aabf a0c1 a4bf
00000090: e5c0 73be e43a b13d 51b2 7dbe fff9 1abf
000000a0: e44d 693d b993 04bf ae2c f8be d86b 03be
000000b0: 5d4f 14bf b813 9fbf 5a34 babf 9ac1 09bf
000000c0: f63a e7be e46c 95be edbf 9ebe 5d6c 2dbe
000000d0: cc74 5ebe 81c7 44bf 1939 f9be f824 a43e
000000e0: 9413 2dbf 6d0b cf3d 0c03 f1be 7142 64be
000000f0: 6bd8 b1bf bd24 ac3e 36f5 d0bf a442 f3bd
00000100: e15c 36bf 2b9a 62be eec3 55bf 745f 8abf
00000110: 7615 e0be f12a eebf c2d4 e63e dd58 b63d
00000120: c238 89bf 1900 a6bd 0f7a 43bf bb2d e2be
00000130: 2663 babe ebc4 7fbf fc91 d4be d5a7 2fbf
00000140: 234b 80bf 4078 fb3c 356e 22bf 9edc febc
00000150: de74 a6bf 6e0c cfbf 31e0 b0be 0e2b 053e
00000160: d61f c0be 22c1 4dbf 3da9 b23c caff b4bf
00000170: cf2a 96bd 667e 01c0 b0dd ec3d d49e 4fc0
00000180: 43ce 36bf d450 65be 8755 ca3d 4899 f8bd
00000190: b1f6 cd3d 4ecc d8bf 2667 833e 3436 8dbf
000001a0: 2866 12be e122 dbbf 4bd0 683d b1d6 39bf
000001b0: dc0d 0cbf c5d3 1ac0 84be 16c0 adb5 b8be
000001c0: 5fa1 2b3e c6fa 92bf ef28 debe 525f b23d
000001d0: 2af1 fbbe 8852 4ebf 228b d0be cef9 92be
000001e0: a880 70be 25ac 38be 0f64 9c3d d3c8 b7be
000001f0: ab1f 92bf 2601 61be 5f37 08bf 05a6 ddbd
00000200: 604b 03bf 1c41 683e 4582 87be 92b6 95bf
00000210: 01a7 4a3e c5a0 bb3e feea 2f3d 8145 5ebe
00000220: 8fb2 6c3d d7be 90be eb8d a3be f393 a4be
00000230: 347d fcbd cbe6 e5ba 1b1f aebe d517 eabc
00000240: b507 5ebf c52c b2bd ec6f e0bd 2ee2 f63d
00000250: a9bc 83bf fe14 10bf b47e 01bf bc47 13be
00000260: 789f 56bf d646 d6bf 3360 5f3d eb1c b3bf
00000270: 3b82 afbe 827e bbbf 1272 0cbe 3379 92bf
00000280: 9965 90bf bb28 c0be ec49 05bf 5e72 15bf
00000290: b875 e43d 3e6b 643e df74 64bd 06ae 49bf
000002a0: e1a9 6ebe f154 3cbf ec29 5fbe a8f0 193e
000002b0: 93d5 193e 876f 1dbf f873 14bf ed29 46bf
000002c0: cc6d cc3c 19cc 32be 78cd 28bf 0d85 0f3e
000002d0: 1dbc af3e c0e5 d5be 4b20 bcbd e7b2 b8be
000002e0: 6c9d a03d c685 99be 807e 26bd 4aaa c63e
000002f0: 80b9 81bf fc44 363e fabf 85bf 20d4 2ebe
00000300: a7d1 b1be f046 163e 45ec a2bf 4f7d 32bf
00000310: 7d38 00bf c74b 94bf 0e86 733e 5ce7 3fc0
00000320: 7e1f 79be fc0d 0bbe d0f8 0cbf 3315 80be
00000330: 13b7 8cbe 5082 98be dcf6 91bc 7901 233e
00000340: f6fb 3fbf 8a11 83be 5638 063d 8369 143d
00000350: 6ce2 4ebf f7bb 7cbf e3d1 6cbc 9b74 ad3e
00000360: 70a2 44bf 98c7 cdbf 9e68 0b3e 6eb0 47bf
00000370: 4831 bcbe 95cc 6ebf d4cd 2bbe 0b4b 07c0
00000380: 3f8b 6ebf 1461 0cbe 3cce 77bf a349 57bf
00000390: 64d3 fdbc 6c8e 93bf 03b2 29bf 2223 17c0
000003a0: 54db 1ebe d959 82bf 175b a73d 3c67 743d
000003b0: 00ab 31bf f847 a7bf ec72 fbbe 8e66 b1bf
000003c0: 49e2 743b bf4b 03c0 ef8b 43bf 30ea 26bd
000003d0: 3336 d9be 76f3 8abe f1da 123d adc2 0dbd
000003e0: 8e98 d0be e0c9 243e b6cc 59bf bfb5 373e
000003f0: 13ad b1bf e490 5ebe e4e7 64bf 5792 99be
0.1820546 0.22342028 -0.3171688 -0.62140036 -0.16155365 0.24317077 0.09280777 -0.61046267
-0.11584899 -0.031037368 -0.28706574 -0.08617482 -0.05179562 0.1381496 -0.08780874 -0.068082124
-0.8843774 0.14877602 -0.079839714 -0.020148005 -0.58997875 -0.20950279 -0.43095967 -0.010966361
-0.7224022 -1.5678091 0.019107802 -1.1734488 -0.19679773 -0.9862055 0.04808007 -0.2965832
-0.3543644 -0.7361564 -1.3307683 -1.287159 -0.23804052 0.086538106 -0.24775054 -0.60537714
0.056959048 -0.51787907 -0.48471588 -0.12834108 -0.579336 -1.2427893 -1.4547226 -0.5381104
-0.4516217 -0.2918464 -0.31005803 -0.16935869 -0.21724242 -0.7686692 -0.48676375 0.32059455
-0.67608 0.10109601 -0.47072637 -0.2229097 -1.389417 0.3362178 -1.6324832 -0.11877945
-0.7123547 -0.22129123 -0.8350209 -1.081038 -0.43766373 -1.8606855 0.45084196 0.08903668
-1.0720446 -0.081054874 -0.7635812 -0.44175515 -0.3640377 -0.9990985 -0.41517627 -0.68615466
-1.002293 0.030696988 -0.6344941 -0.031111058 -1.3004415 -1.6175668 -0.34546044 0.13004705
-0.3752429 -0.8037282 0.021809215 -1.4140561 -0.07332384 -2.0233397 0.11565721 -3.244069
-0.7140848 -0.22394115 0.09879594 -0.12138611 0.10056818 -1.6937349 0.25664634 -1.1032166
-0.14296782 -1.7120019 0.05683927 -0.7259322 -0.5470865 -2.4191754 -2.3553782 -0.36076108
0.16760777 -1.148278 -0.43390605 0.08709587 -0.4920743 -0.8059468 -0.4073115 -0.2870621
-0.23486578 -0.18034418 0.07636272 -0.35895404 -1.1415914 -0.21973094 -0.5320949 -0.10822681
-0.5128689 0.22681087 -0.26466575 -1.1696341 0.1979027 0.36646095 0.042948715 -0.21706201
0.057787474 -0.282706 -0.31944212 -0.32144126 -0.12328568 -0.0017540095 -0.34008107 -0.028575817
-0.8673051 -0.08699945 -0.109588474 0.12054859 -1.029195 -0.5628203 -0.5058396 -0.14382833
-0.8383708 -1.6740367 0.054535102 -1.39932 -0.34279045 -1.4647982 -0.1371539 -1.1443237
-1.1281005 -0.37531075 -0.5206592 -0.58377635 0.111552656 0.22306535 -0.05577552 -0.78781164
-0.23306991 -0.7356711 -0.21793336 0.1503321 0.15022878 -0.614983 -0.57989454 -0.77407724
0.024954699 -0.1746067 -0.6593852 0.14015599 0.34323207 -0.41776848 -0.09185847 -0.36073992
0.07842526 -0.29984874 -0.040647984 0.38801795 -1.0134735 0.17799753 -1.0449212 -0.17073107
-0.34730265 0.14675498 -1.2728354 -0.69722456 -0.50086194 -1.1585625 0.23781607 -2.998496
-0.2432842 -0.13579553 -0.5506716 -0.25016174 -0.27483425 -0.2978692 -0.017817907 0.1591853
-0.74993837 -0.2559932 0.03276857 0.036233436 -0.8081424 -0.9872431 -0.014454338 0.33878025
-0.7681036 -1.6076536 0.13614127 -0.78003585 -0.3675635 -0.9328092 -0.16777736 -2.1139553
-0.9318122 -0.13708907 -0.96799064 -0.84096736 -0.030984588 -1.1527839 -0.6628725 -2.3615193
-0.15513355 -1.0183669 0.08171671 0.059668764 -0.6940155 -1.3068838 -0.49111116 -1.3859422
0.0037366322 -2.0514982 -0.76385397 -0.040750682 -0.42424163 -0.2713887 0.03585333 -0.034609485
-0.4074139 0.16092634 -0.8507799 0.17940424 -1.3880943 -0.21734959 -0.89416337 -0.2999446

bias f4 [10]
00000000: 7297 553e 218f 0fbf 7962 233e 5323 96be
00000010: 4284 8fbe ecb1 5f3e 0f4a 633f 39c1 3dbf
00000020: de21 1c3e 14bd 5ebf
0.20858553 -0.5607777 0.15955533 -0.29323825 -0.28030592 0.21845216 0.8878488 -0.7412296
0.15247294 -0.8700726
